model/model.pth (torch, 90323 bytes, 4 tensors)

linear1.weight f4 [600, 33]
000000 e9 b9 d8 bc 50 ad 72 be 1b 0c f2 bd 4d a5 a1 bd
       -0.026455836 -0.23698926 -0.11818715 -0.07892857
000010 f7 cc 96 be a2 f2 5f be 0d 8b e8 bd b9 48 d2 bd
       -0.2945325 -0.21869901 -0.11354647 -0.10267777
000020 9b ea bd be 94 4b 93 be e1 a1 0a be f0 e9 79 be
       -0.37093052 -0.287686 -0.13538314 -0.24405646
000030 3a e4 54 3e b6 12 41 3e ff 60 2f be 12 58 40 3e
       0.20790187 0.18854794 -0.17126845 0.18783596
000040 0b d1 ae bd 26 30 6d 3d 46 96 03 3c 15 e8 c8 bc
       -0.085359655 0.057907246 0.008031433 -0.024524728
000050 a5 cc 3d bd 40 82 88 bb 23 f5 39 be b9 c2 01 be
       -0.046337742 -0.0041659176 -0.18159918 -0.12671937
000060 25 9a b8 ba 13 50 2e be 0d 5f 27 be 24 b0 06 be
       -0.0014084025 -0.17022733 -0.16344853 -0.1315313
000070 ba db 18 3c 06 f7 74 bc 6b c7 5e be 81 97 18 be
       0.009329731 -0.014951473 -0.2175576 -0.14901544
000080 58 0f 18 ba ad f9 33 be 40 5f 01 3d 05 c8 3d bd
       -0.0005800626 -0.17575713 0.031584978 -0.04633333
000090 2e 3b 32 be 0c 25 3e bc 35 35 84 be 27 22 fb bd
       -0.17405388 -0.011605512 -0.25821844 -0.122623734
0000a0 b5 03 51 be 26 4e 8f bd ce 49 0a 3d b6 3c 8a be
       -0.2041157 -0.069973275 0.033761792 -0.26999444
0000b0 74 d3 85 bd db d0 07 3b 51 36 ca bd 61 ee 3e 3e
       -0.06534472 0.0020723853 -0.09873641 0.18645622
0000c0 aa fb 8d 3d 24 5d fd 3d 19 06 2e be fa 2c 10 be
       0.06932767 0.12371281 -0.16994514 -0.14079657
0000d0 7c f1 35 bd 02 d4 96 bc ae ed 9a 3d 85 55 b1 3c
       -0.04441975 -0.01841164 0.07564865 0.021647224
0000e0 a7 10 5c be 13 09 39 bd a5 7a a3 be 54 f6 07 be
       -0.21490727 -0.04517467 -0.31929508 -0.1327756
0000f0 0d ae 0e 3d e7 6c c6 3d 08 8c 3d 3c 39 cd 08 be
       0.034833957 0.0968874 0.011569031 -0.13359536
000100 d3 bb 81 3c c1 88 87 be 44 d9 75 bc d2 34 ad bd
       0.015836632 -0.26471522 -0.015005413 -0.0845734
000110 6e 5a eb bc d3 93 b9 bd 59 db 0e be e0 a4 9e be
       -0.028729644 -0.09061398 -0.13950862 -0.30985165
000120 5a 20 12 be c2 2b 35 3d 9c 1f b2 3d d6 d0 7b be
       -0.14270154 0.044231184 0.08697435 -0.24591383
000130 8d 42 f0 bc 60 19 00 be b0 58 da 3d 54 65 6e bd
       -0.029328609 -0.1250968 0.10661447 -0.058202103
000140 66 17 9f bd e2 17 22 bd ca 92 82 bd 87 34 09 be
       -0.07768135 -0.039573558 -0.06375654 -0.13398944
000150 ac 63 47 bc 69 97 47 be 01 41 16 be e7 29 10 be
       -0.01216976 -0.19491352 -0.14673235 -0.14078484
000160 46 da f4 bd 64 bf 96 3c fa c5 eb bb f1 a4 14 be
       -0.11955695 0.018401809 -0.0071952315 -0.14516045
000170 1a e3 b7 be 8e 87 56 be 6c 89 17 3e ee b0 ef bd
       -0.35915452 -0.20950148 0.14798516 -0.117036685
000180 3d fd 08 be bd 45 45 3d b7 63 c8 be b6 6b 29 be
       -0.13377853 0.04816221 -0.39138576 -0.16544995
000190 bc 79 d0 ba 20 e2 27 bd 01 62 3a bd fb a8 0a 3c
       -0.001590542 -0.040987134 -0.04550362 0.00846314
0001a0 57 91 19 be 29 65 79 bd ea 8d 14 be 7a ac 0a be
       -0.14996849 -0.06088749 -0.14507261 -0.13542357
0001b0 22 c0 16 bc 82 1c 73 bd 80 2d c6 bc 33 82 9e bd
       -0.0092010815 -0.05935336 -0.024191618 -0.07739677
0001c0 11 54 00 be a1 40 33 be f0 c5 53 3c 04 35 9b 3d
       -0.12532069 -0.17505123 0.01292561 0.07578471
0001d0 80 52 9b 3d 63 52 ca bd ed 76 9e bd 61 6a 2c be
       0.07584095 -0.09878995 -0.07737527 -0.16837455
0001e0 8d 1e 79 bd 44 0a 0e be ee 21 c9 3d 46 b2 32 3d
       -0.06082015 -0.13871104 0.09820925 0.043627046
0001f0 50 57 57 3c 84 56 2a be 85 00 9c 3c 57 53 2e be
       0.0131433755 -0.16634566 0.019043216 -0.17023979
000200 74 15 28 3d b2 a7 02 be df 1a 36 be d7 69 83 39
       0.041036084 -0.12759283 -0.17783688 0.00025065124
000210 9e 20 9f bf 4d 73 b1 3f 7f 41 2c c0 f2 da 2c c0
       -1.2431829 1.3863312 -2.6914976 -2.7008634
000220 12 88 dc bf 8a c1 9d c0 1e a5 9f 3f a7 87 b1 3f
       -1.7229025 -4.9298754 1.2472265 1.3869523
000230 df ee cf 3f bd 86 8b bf fa af 07 bf 9e 6c 6c bf
       1.6244773 -1.0900494 -0.53002894 -0.92353237
000240 39 4e d4 3e fd 34 34 bf e4 25 2d bf d1 cf 37 bf
       0.4146593 -0.70393354 -0.6763594 -0.7180148
000250 5f de 92 bd b1 5b d2 be 28 7a 2d 3e 48 6d 82 3c
       -0.0717132 -0.4108558 0.1694113 0.01592125
000260 71 7e 29 bf bf 4f 06 bf 53 5e 27 be d8 3b 0f 3f
       -0.6620856 -0.5246543 -0.16344576 0.5595069
000270 60 73 ff be 65 0a 5e 3c 93 14 3a bf 25 e1 34 be
       -0.49892712 0.013552283 -0.72687644 -0.17664011
000280 0e 24 5d be 00 7e 14 be 23 57 82 3e 65 30 9e bd
       -0.21595785 -0.1450119 0.25457105 -0.07724074
000290 44 18 8f 3d 32 40 1a be 2d b5 e5 bd 53 71 36 bd
       0.0698705 -0.15063551 -0.11216197 -0.04454167
0002a0 1c b8 95 be dd 78 83 be 33 5b af bd 96 56 e2 bd
       -0.29242027 -0.2567815 -0.08562317 -0.11051671
0002b0 16 d0 2a be e1 d6 7c bd 90 9c b5 bc e8 83 e3 3c
       -0.16680941 -0.061728362 -0.022169381 0.027772859
0002c0 da 86 0e bd 2e e5 21 be 88 d6 5c be df 0a e8 bd
       -0.034796573 -0.15810081 -0.21566212 -0.113301985
0002d0 30 48 fc 3d e2 0b 62 3d 3c 71 46 be de 6d 2e 3e
       0.12318456 0.055187114 -0.19379133 0.17034099
0002e0 01 ef d8 bb 4e 26 68 be d0 cb 87 3d cb 70 c9 bd
       -0.0066202884 -0.22670862 0.06630671 -0.09835967
0002f0 60 15 ac bc ac f4 17 be 02 93 ad 3c 1f d3 65 be
       -0.021006286 -0.14839429 0.021188263 -0.22443818
000300 d9 95 3a bc b4 61 02 3d 58 ee be bc 8b e6 93 be
       -0.0113882655 0.03183146 -0.02330701 -0.28886828
000310 a4 04 fe 3d bf cf f9 3d 20 d3 f3 bd c7 70 65 bc
       0.12403229 0.121978275 -0.11905503 -0.014003939
000320 40 d0 86 be bb d1 cb bc e9 a7 96 be a9 c3 79 be
       -0.26330757 -0.02488028 -0.2942498 -0.24391045
000330 66 b8 d9 be 53 9d f1 be dc 05 4d be 41 81 c2 be
       -0.42523497 -0.4719034 -0.20021766 -0.37989238
000340 1c 4b 28 be 36 5d 4e be fc 40 b1 3d 95 b9 83 3e
       -0.16434902 -0.20152745 0.08654973 0.25727525
000350 7f bd 7e be 16 25 25 3e 64 4e 80 bd b2 30 1b 3d
       -0.24876975 0.16127428 -0.06264952 0.037888236
000360 a0 39 87 bd 35 d1 41 be 8a 08 c4 bd 5c 71 01 be
       -0.06602788 -0.18927462 -0.09571941 -0.126409
000370 6d 08 90 bd 7e d5 1c be b0 0f 2d 3d 8c f7 99 be
       -0.07032857 -0.15315816 0.04225129 -0.30071676
000380 c3 74 23 be 78 60 8a bb 1d 8b 8e be 73 e8 8c bd
       -0.1596251 -0.0042229258 -0.2784051 -0.06880274
000390 1a dd a7 be 37 bd 20 be 50 80 6a be 82 8b 44 be
       -0.32785875 -0.1569718 -0.2290051 -0.19193843
0003a0 17 2a 85 bd 66 4a 8f bd 29 f4 a7 bd 70 a2 af bb
       -0.065021686 -0.06996612 -0.08200867 -0.00535994
0003b0 98 3a 62 be 89 d2 05 be 06 6b 18 be ac 9a 4d bc
       -0.22092664 -0.13068594 -0.14884576 -0.012549084
0003c0 55 5d 52 3d 0b c1 0a be 96 e8 d3 bd 34 3e aa bd
       0.05135854 -0.13550203 -0.103470966 -0.083126456
0003d0 3d 6e f1 bd 56 fc a4 3d a8 64 1b 3e 2c 12 8a 3c
       -0.117886044 0.08055942 0.15175116 0.016854368
0003e0 ab e6 4a bc 62 11 21 bd 4c 00 c1 bb 07 13 04 3e
       -0.012384097 -0.03932322 -0.005889928 0.12897883
0003f0 d2 7a fb bd fa 90 d4 bd 3b e4 44 be 9f 41 26 3d
       -0.122792855 -0.103792146 -0.19227688 0.040589925

linear1.bias f4 [600]
000000 3c c0 0e be 8e ce 82 be f1 13 b8 be 0d 4e 8e be
       -0.13940519 -0.25548214 -0.35952714 -0.27793923
000010 6c 9b d7 3e ae 34 47 be be 3e 29 be 13 1b 8d be
       0.42110765 -0.1945369 -0.1652784 -0.27559718
000020 e2 36 b5 bd 82 27 07 bf f2 98 3b bf c9 12 9b be
       -0.08848359 -0.5279466 -0.7328025 -0.3028777
000030 24 72 91 be b7 e3 8c be f5 d1 80 be 45 4c f1 bd
       -0.28407395 -0.27517483 -0.25160185 -0.117821254
000040 9d 4f 13 3f ee 2b 96 be f6 00 a0 be fd 4c 98 be
       0.57543355 -0.2933039 -0.31250733 -0.29746237
000050 5f a8 a3 be de 30 31 3f 5c 82 8b bd 12 2f 99 be
       -0.31964394 0.6921519 -0.068119735 -0.29918724
000060 d7 d0 d7 bd c5 9e f7 bd 09 4a ce be 94 fe 1e bf
       -0.1053788 -0.1209083 -0.4029086 -0.62107205
000070 5f 8f 07 be 9a 57 1c be e7 71 90 be ee 30 19 be
       -0.13238285 -0.15267792 -0.282119 -0.14960071
000080 69 cf cc bd 1b f7 cc bd 22 b2 b1 be c3 2e e1 bd
       -0.10000498 -0.10008069 -0.34706217 -0.10995247
000090 ad 6e 34 bf 5f 11 f7 bd b5 07 c2 bd d2 7c da be
       -0.7048138 -0.1206386 -0.09474126 -0.42673355
0000a0 25 de 8b be 29 8b 7f be c8 99 89 be 63 ec 42 bf
       -0.2731792 -0.24955429 -0.26875138 -0.7614195
0000b0 d1 c1 2d be 01 80 fa be ec 99 81 be be cb 96 be
       -0.16968466 -0.48925784 -0.25312746 -0.29452318
0000c0 c0 0e 84 be 72 8d d6 bd 9d 3a 0c be 79 53 e4 bd
       -0.25792503 -0.10476197 -0.13694234 -0.11148734
0000d0 cc 76 12 c0 99 e7 91 be 76 69 08 bf b1 2e 96 be
       -2.2885008 -0.28497007 -0.5328592 -0.29332498
0000e0 49 c8 f3 be 59 80 05 be a7 05 96 be dc d0 8c be
       -0.47613743 -0.13037242 -0.29301187 -0.27503097
0000f0 12 d4 8e be 1c 06 69 bc af ed 1d be 21 55 ba bd
       -0.27896172 -0.014222648 -0.154227 -0.09098268
000100 ba 67 06 be a6 db 4e be dc 69 8b be 22 23 ca be
       -0.13125506 -0.20200977 -0.27229202 -0.3947993
000110 cc a2 72 be 32 75 4e be 7f a0 48 be c1 0b c4 3c
       -0.23694915 -0.20161894 -0.19592474 0.023931386
000120 62 3b 6b bd 67 9c be 3e 11 db ea bd a3 d6 0a bf
       -0.05742968 0.372287 -0.11467565 -0.5423376
000130 53 c6 7f be 04 51 03 be 94 9f 23 be d3 c7 89 be
       -0.24977998 -0.12823874 -0.15978843 -0.26910266
000140 a5 c1 15 bf 04 fc ab be 02 91 d3 be 92 7e 8e be
       -0.58498603 -0.3359071 -0.4132157 -0.2783094
000150 00 ea 27 be b6 4f ba be dd 59 98 be b4 6c 58 be
       -0.16397858 -0.3638894 -0.2975606 -0.21135217
000160 40 96 4e be 35 0c 44 be ff 64 cf bd 15 a0 06 bd
       -0.20174503 -0.19145282 -0.10126685 -0.03286751
000170 67 5f de be 31 23 9e be dc 07 7a be 8b 2d 51 bd
       -0.4343216 -0.30886224 -0.2441706 -0.051068824
000180 37 ad 1e be 67 d1 0d bf af b0 89 be c4 2f 09 be
       -0.15495764 -0.5539765 -0.2689261 -0.13397127
000190 6e 13 40 bd be fd 86 be cb 3c de be 77 80 8e be
       -0.04689353 -0.26365465 -0.43405756 -0.27832386
0001a0 65 b8 3e be b7 99 b6 bd 72 48 62 be b6 b7 78 be
       -0.18625028 -0.089160375 -0.22097948 -0.2428883
0001b0 1f 2a f3 be e6 41 99 3e 21 92 30 be 51 a3 71 be
       -0.47493073 0.2993309 -0.17243244 -0.23597457
0001c0 c9 f6 04 be 4c 81 85 be 17 b5 ec bd 6a d5 b8 be
       -0.12984766 -0.26075208 -0.11557978 -0.36100322
0001d0 5c b7 9c bd 3c 24 c5 bd f0 c3 90 bd 6b f9 b2 be
       -0.076521605 -0.09626052 -0.07068622 -0.34955916
0001e0 a7 f4 02 be 72 58 73 be 9b ca 87 be 78 b2 91 be
       -0.1278864 -0.23764208 -0.26521763 -0.28456473
0001f0 d6 78 3b be 65 5e ce bd f9 1f 30 bf fd 8f 80 be
       -0.18307814 -0.10076598 -0.68798786 -0.25109854
000200 5c 30 6a bd 6f bb 86 be 8d da e1 bc be 0c 78 bd
       -0.057175025 -0.26314875 -0.027570033 -0.060559027
000210 e0 89 a2 be 99 35 ab be ac 33 9d be 0b ce 3a bd
       -0.31745815 -0.3343933 -0.30703485 -0.045606654
000220 72 70 a8 bd b3 47 31 bf ea 5c 13 be 6a 06 66 bf
       -0.08224572 -0.6925003 -0.14390913 -0.8985354
000230 04 2e 7c be 8b ed 75 be 10 fa 58 bd 96 74 a4 bd
       -0.24626929 -0.24016397 -0.052972853 -0.080300495
000240 18 06 81 be 0b 03 87 be 8c 6b 43 be 6e 97 4a be
       -0.25199962 -0.2636951 -0.19083995 -0.19784328
000250 8d c5 6d be a4 37 46 be ca cc 71 bf e5 9d 54 be
       -0.23219891 -0.19357163 -0.9445311 -0.20763357
000260 d6 9a 0d be fa 6f 97 be 3c c6 87 be a0 bf 5e 3d
       -0.13828596 -0.2957762 -0.26518428 0.054381967
000270 e3 74 c4 bd 52 c3 18 bf 46 af 0b be bc a0 be be
       -0.09592607 -0.59673035 -0.1364108 -0.37232006
000280 74 79 73 bd 04 b3 47 be e3 9b 5c be 8a 01 34 be
       -0.059442 -0.19501883 -0.21543841 -0.17578712
000290 8a 0d bf bd 62 68 6a bd ba 50 95 be 7e b9 02 be
       -0.09328754 -0.057228453 -0.29163152 -0.12766072
0002a0 fe b3 0f be 03 c1 60 bf b6 0b c2 be 00 27 b0 be
       -0.14033505 -0.8779451 -0.3789956 -0.34404755
0002b0 6e 6c ac be b1 9d 00 be 15 8a d2 bd 25 79 85 be
       -0.33676475 -0.12560154 -0.10280243 -0.26068988
0002c0 b0 9c 98 be e3 0f 76 be 44 1c 8f be 29 f2 7c be
       -0.29807043 -0.24029498 -0.27951252 -0.24701752
0002d0 b6 6d 14 be 58 44 01 bf 64 70 5e bc b1 a1 9d bd
       -0.14494976 -0.5049491 -0.013576601 -0.07696856
0002e0 e7 8b c4 be d7 36 ca be 81 d0 7a bd da 21 42 3a
       -0.38387987 -0.39494964 -0.061234 0.0007405557
0002f0 38 d6 6b be ea 07 67 bd 36 e6 56 be 6d c5 19 bf
       -0.23030937 -0.05640403 -0.20986256 -0.6006687
000300 d2 9a 88 be cb 2e 06 be aa e1 ee be 38 cd 86 be
       -0.2668062 -0.13103788 -0.46656543 -0.26328444
000310 73 c0 2e be 5d 16 09 bf 34 c9 3b be 1b 6c b8 be
       -0.17065601 -0.5354975 -0.18338472 -0.36019978
000320 7a c2 29 be 9b a9 19 be 71 db 18 bf 87 ff 9f be
       -0.16578093 -0.15006106 -0.5970984 -0.3124964
000330 ad 85 a6 bf 84 14 e2 bb ab af 82 be 8f 5e 2e be
       -1.3009545 -0.0068994183 -0.2552465 -0.17028259
000340 86 89 a9 be 17 0d a1 be 39 54 fa bd 89 19 8f be
       -0.33112735 -0.314553 -0.122230954 -0.2794917
000350 e9 f2 ae be eb c4 50 be 2c 47 1a be 9e ca 56 bf
       -0.341697 -0.20387618 -0.15066212 -0.8390292
000360 49 11 22 bd 04 09 e6 bd 28 a7 7a be 15 f4 a7 be
       -0.039567266 -0.11232188 -0.24477828 -0.32803407
000370 82 dd 4d bf 80 2a ad be a7 3a 83 be 26 d1 f5 be
       -0.8041612 -0.33821487 -0.25630686 -0.4801113
000380 0e 17 9b bc 5b ad f7 bd 09 4e 64 be 16 82 e1 3c
       -0.018931892 -0.12093612 -0.22295393 0.02752785
000390 42 6e 7a be 0c c2 19 be a7 d5 44 bd a7 82 8d be
       -0.24456123 -0.1501543 -0.048055317 -0.27638742
0003a0 4d 18 7a be 7c 3e 33 be 41 bb 38 be 79 2e 03 be
       -0.24423333 -0.17504305 -0.18040182 -0.12810697
0003b0 a8 a3 06 be 98 37 25 bf fa f3 5f bd b8 59 18 be
       -0.13148367 -0.64537954 -0.054676034 -0.14877975
0003c0 52 b0 bb bd a8 c8 d1 be 63 6b 6f be ec 25 88 be
       -0.0916449 -0.409734 -0.23380809 -0.26591432
0003d0 e5 38 43 be af 77 e5 be 98 c4 b3 bd cd 7c 42 bd
       -0.19064672 -0.44817874 -0.08777732 -0.0474823
0003e0 21 28 1a be e3 1d 1c 3c 3f d4 5e be 2b f9 b2 bf
       -0.1505437 0.00952861 -0.21760653 -1.398229
0003f0 08 67 99 be c8 be 06 bf 4c 0a 92 be 69 5b 5b be
       -0.2996142 -0.5263486 -0.2852348 -0.21421589

linear2.weight f4 [3, 600]
000000 12 6d 53 bd 7b 85 71 3c a2 1f 1e bc f5 a5 d7 3c
       -0.05161769 0.014741297 -0.009651097 0.026324252
000010 95 67 22 be f2 50 d6 3c 1b d7 66 bd 36 7f 6a 3d
       -0.15859826 0.026161645 -0.056357484 0.057250224
000020 b2 fd 02 3d 3f 51 87 bd 74 01 8d bd 33 9d 2a bd
       0.031980224 -0.06607293 -0.06885043 -0.041653823
000030 c9 f4 b7 3c 9f b3 d0 bb 9e a6 c9 bd 86 d1 a8 3b
       0.02245559 -0.0063690688 -0.09846233 0.0051519303
000040 57 08 64 3f 29 c4 7b bd b7 7b 30 3d bf 9e 3d 3d
       0.89075226 -0.06146637 0.043086734 0.04629397
000050 d1 61 6a bd b7 c3 4d 3c 3a 60 5f bd 48 7d e8 3b
       -0.05722219 0.012558869 -0.05453513 0.007095013
000060 37 16 11 3c d6 71 8f bd 11 73 dd 3c d0 d4 f1 bc
       0.008855394 -0.07004134 0.027032407 -0.029520422
000070 cc 82 5e 3d b5 68 b3 3c a7 01 9f bc 4c be ad 3b
       0.054323956 0.021900514 -0.019409968 0.005302226
000080 87 0a 47 3d 10 27 90 bd 44 0e b4 be b2 25 22 3d
       0.048594024 -0.070387006 -0.35167134 0.03958673
000090 29 f0 1f be fd 1f 2c bd b7 a0 8f bc 5d 44 47 bf
       -0.15618958 -0.042022694 -0.01753269 -0.7783869
0000a0 27 a6 60 3c f0 2e 84 3c bd 2b 72 bc 73 c6 2b be
       0.013711489 0.016135663 -0.014780936 -0.16774921
0000b0 d7 ff 8a 3c 37 91 df bc 42 78 a9 bb 9f f3 6a bd
       0.016967697 -0.027290924 -0.0051718066 -0.05736124
0000c0 62 8d 25 3d cd 31 90 bd 9a 2d 6e bc 24 ae b2 3c
       0.040418036 -0.07040749 -0.014537239 0.021811552
0000d0 40 e2 28 be e4 3b 05 bd 56 d4 24 be 64 d1 19 bd
       -0.16492558 -0.03252782 -0.16096625 -0.037553206
0000e0 65 08 04 bc 57 23 a9 bd 69 f6 47 3d 85 50 65 bd
       -0.008058642 -0.08258694 0.04881898 -0.055984993
0000f0 c2 dc ce 3c 31 60 b2 3b 9e 8f 5a bd 1d 5c fd bc
       0.02525175 0.005443596 -0.05335962 -0.030927712
000100 8b cf 94 bc 27 5d 88 be bb 61 d5 bc d8 1a 16 3d
       -0.01816537 -0.2663357 -0.026047578 0.036646694
000110 34 45 8b bd 5c ac 16 3d 82 33 50 3a 56 97 06 3d
       -0.06800309 0.03678547 0.00079422456 0.03285917
000120 1b 51 39 3d 94 1c e6 3e 02 61 6e bc 27 f9 20 3e
       0.045243364 0.44943678 -0.014549496 0.15720044
000130 99 d7 71 bd 81 01 6d bd e7 ca b1 bd 46 59 e4 3c
       -0.0590435 -0.057862762 -0.08681279 0.0278746
000140 72 b1 a3 3e e0 1a 83 bd cf 23 3a bd b8 43 47 bd
       0.31971318 -0.064016104 -0.045444306 -0.048648566
000150 a1 c2 74 bd 10 29 bd bd b9 de d7 bc ee 2f e1 bc
       -0.059755925 -0.09236348 -0.02635132 -0.027488675
000160 bf c6 02 3d 4b 43 7f bc 48 50 aa 3c 30 b4 d0 3b
       0.03192782 -0.015580009 0.020790234 0.0063691363
000170 c7 84 44 bd 2f 50 29 bd 90 62 8c bd 30 32 ff 3b
       -0.04797819 -0.041336235 -0.06854737 0.0077879652
000180 54 a5 b3 3b 68 1c 37 3d 75 0a 3b 3d df ef 9c bb
       0.005482355 0.044704825 0.04566427 -0.004789337
000190 b9 a5 70 bc 0b 85 43 bd e6 07 02 be 01 4a 09 3e
       -0.014687949 -0.0477343 -0.12698326 0.13407136
0001a0 65 fb 01 bd e7 11 7c bb 67 3a 7f 3d 1e c2 9d bb
       -0.03173389 -0.003846282 0.062311556 -0.0048144003
0001b0 23 cc 32 bb ea 87 52 3f af 71 38 3a f8 b3 c8 bc
       -0.002728232 0.8223864 0.0007035983 -0.024499878
0001c0 02 e2 8b 3c 36 ba 58 3d 39 b6 86 3d dc f2 17 bd
       0.017075542 0.05291196 0.06577725 -0.037096843
0001d0 98 24 70 bc 4f e9 2b bd fa 29 56 3c dc b6 77 bc
       -0.014657162 -0.041970547 0.013071531 -0.015119281
0001e0 f5 db 0d 3e 85 33 22 bd 76 69 db 3b 40 16 94 3c
       0.13853438 -0.039599914 0.0066959215 0.018077016
0001f0 d8 79 d5 bd cb ae b2 bc 1f 93 83 be 28 8c c2 3c
       -0.104236305 -0.021811863 -0.25698182 0.023748472
000200 24 ce ad bc 65 0a d4 3b 2c cb 84 3c 66 80 4e bd
       -0.02121646 0.0064709657 0.016210161 -0.05041542
000210 5b cd 40 bd d4 be 1c 3d 13 57 ca bc 8d 97 0c bd
       -0.047070842 0.038267925 -0.024699723 -0.034324218
000220 2a dc 91 bd be d6 01 bd 2b 2c 7c 3d 69 05 29 3e
       -0.07122071 -0.031698935 0.06156556 0.1650597
000230 b6 5d e4 3c 39 cd 13 3d 08 f2 31 3d c9 26 be bc
       0.027876716 0.036084387 0.04344371 -0.023211854
000240 d6 d9 1c 3d d9 e7 e3 3b 49 41 4a bd 49 11 03 3e
       0.038293682 0.0069551286 -0.049378667 0.12799563
000250 df 49 50 bd a0 5f 5c 3d 10 c6 0e 3f 07 5b 60 bd
       -0.0508517 0.053802133 0.5577097 -0.05477431
000260 35 69 d8 3b c0 a7 93 3d 4b 19 04 3e ae 56 28 3d
       0.0066043385 0.0720973 0.12900274 0.04109829
000270 77 19 19 ba 80 6c 67 3f 2c eb 36 bd 53 05 7d 3e
       -0.00058402814 0.9039993 -0.04465787 0.24709062
000280 f7 af 5d bd c4 c0 37 3c 3e 2c c9 bb b0 4d 72 3d
       -0.05412289 0.0112153925 -0.0061393073 0.05915612
000290 5a ea 11 3d d2 0e 6c bc c5 66 90 bd b0 4f f2 3c
       0.035623886 -0.01440783 -0.07050852 0.029579014
0002a0 df 4e f2 3c 04 b2 be 3c e0 61 15 3e 29 50 86 bc
       0.029578624 0.023278244 0.14588118 -0.016395645
0002b0 21 5f 6b 3d 42 22 30 bd 10 58 dd bb 2e 54 86 bb
       0.05746377 -0.04300142 -0.0067548826 -0.0040993905
0002c0 71 d0 1d bc 29 6b 10 3d a4 3b 0c bc 2e 6d fd bd
       -0.009632216 0.035258446 -0.008559141 -0.1237434
0002d0 cd 55 87 bd 2d ac bf bd b0 a3 9d bc 88 e3 30 3d
       -0.06608162 -0.09359012 -0.019243091 0.04318574
0002e0 ef 8f 88 bc a8 2e c0 bc 55 04 93 3c 5f 03 a3 3a
       -0.016670195 -0.023459747 0.017946402 0.0012436918
0002f0 37 85 0a bd 0c 68 21 bc c3 ef 73 bd d7 70 a4 bd
       -0.03381845 -0.009851467 -0.059554826 -0.08029335
000300 6a 16 d0 bd 44 77 c5 3b 26 d3 23 3c 20 c5 90 bd
       -0.10160525 0.0060261805 0.009999072 -0.070688486
000310 3e 06 2e 3d 88 89 fb bd 30 5a 56 bc 64 57 1f bd
       0.04248642 -0.122820914 -0.013083026 -0.0389017
000320 46 c8 61 3d b0 67 13 3d 0b 02 c4 3d ee 6d 16 3d
       0.055122636 0.035987556 0.09570702 0.03672593
000330 57 0b 29 3d 9f 73 c1 bd 5b a0 81 bb e6 97 83 3c
       0.04127058 -0.09445881 -0.0039558834 0.016063642
000340 52 8c 8e be 0d 1f 4f bd c9 96 50 bd 2c a7 11 be
       -0.2784143 -0.05056672 -0.05092505 -0.14223927
000350 bc c0 22 bd aa e2 0c bd 16 12 f3 bd ae 56 fc bd
       -0.039734587 -0.03439585 -0.11868684 -0.1232122
000360 56 25 ef 3c c5 99 ae 3c 50 ab e6 3c c6 dc 4c bc
       0.029192608 0.021313557 0.02815786 -0.012503808
000370 94 a3 72 bd 55 b7 a3 3c 48 d0 5f bd 8a b2 66 3d
       -0.05923803 0.01998488 -0.05464199 0.056322612
000380 bc f3 a8 bc 6f 9c f9 bc ed 91 95 3c b8 9f 20 bf
       -0.020624034 -0.030470101 0.01825806 -0.6274371
000390 96 2c d5 bc ad 9c e1 bc 26 11 0c bc 20 15 b4 bc
       -0.026022237 -0.02754053 -0.00854901 -0.02198273
0003a0 02 7e 4e bd 09 a1 f5 bc b3 16 9a bb 27 58 98 3c
       -0.05041314 -0.029984014 -0.004702413 0.018596722
0003b0 a8 1d bb 3c a0 7a 77 3e ca 10 a6 3b bc 74 d3 bb
       0.02284129 0.24167871 0.0050679194 -0.006453125
0003c0 f2 c6 0a bb de 1a 91 bd fe 79 26 bd 50 8f 17 be
       -0.002117571 -0.07085203 -0.040643685 -0.14800763
0003d0 53 23 e2 bc ce c3 33 bc e7 a4 88 bd 87 e3 d8 bc
       -0.027604735 -0.010971976 -0.066720776 -0.026475681
0003e0 5b 13 9b 3b 04 c9 8c be 78 36 0f 3e b4 5e 9f 3c
       0.004732532 -0.27497113 0.13985622 0.019454338
0003f0 92 76 81 bd 71 6a 61 3d d6 8d c4 3c f0 ee f5 bd
       -0.063214436 0.05503315 0.023993414 -0.12008464

linear2.bias f4 [3]
000000 66 56 f1 bd d5 89 b2 bf 9b 5e b1 bf
       -0.11784057 -1.3948313 -1.3856996
