model/model.pth (torch, 7507 bytes, 4 tensors)

linear1.weight f4 [100, 11]
0	0x3eb8dd01	0.36106113
1	0x3d8c33f0	0.06845844
2	0xbf013766	-0.50475156
3	0xbde091fc	-0.10965344
4	0x3f2d2b09	0.6764379
5	0xbde487b7	-0.11158698
6	0xbd366631	-0.04453105
7	0x3ecff6a0	0.40617847
8	0xbeeb4e24	-0.45958054
9	0x3e7e1607	0.2481309
10	0x3e924b69	0.28573158
11	0x3da61fb2	0.08111514
12	0x3ebda21f	0.3703775
13	0xbe80a481	-0.25125507
14	0x3b462345	0.0030233425
15	0x3dd805d2	0.10547985
16	0xbd80bb8b	-0.06285771
17	0xbd8e37e8	-0.06944257
18	0x3c5d9ba8	0.013525881
19	0xbe5e4c13	-0.21708708
20	0xbdba41a2	-0.0909455
21	0xbdbbf840	-0.09178209
22	0x3d60d34e	0.054889016
23	0xbc4d0eb1	-0.01251571
24	0x3aac5339	0.0013147361
25	0x3ea5fc67	0.3241913
26	0xbef7884a	-0.48346168
27	0x3e8e627f	0.27809522
28	0xbe663f60	-0.22485113
29	0xbddf461c	-0.10902044
30	0x3f564361	0.8369656
31	0xbdb62662	-0.0889404
32	0x3eed7006	0.4637453
33	0x3e7befc3	0.2460318
34	0x3d8c43e3	0.06848886
35	0xbcaf2f6d	-0.021384919
36	0x3e8acf38	0.2711122
37	0xbf2869c4	-0.65786386
38	0xbedff444	-0.43741047
39	0x3ee5aba5	0.44857517
40	0xbeaac96a	-0.33356792
41	0x3f122e8f	0.5710229
42	0x3eb785c8	0.35844254
43	0xbefe84ab	-0.49710593
44	0xbe00428e	-0.12525389
45	0xbd165e9b	-0.036711317
46	0x3e434a8c	0.19071406
47	0xbd10c858	-0.035347313
48	0xbd567f70	-0.052367628
49	0xbd441a70	-0.047876775
50	0x3e850d84	0.25986874
51	0xbd46a328	-0.04849544
52	0xbd43e4f6	-0.047825776
53	0xbe4876b8	-0.19576538
54	0xbe50494f	-0.20340465
55	0xbe9b90c5	-0.30383888
56	0x3c87c733	0.016574478
57	0x3ed5ac46	0.41732997
58	0xbe267f1c	-0.16259426
59	0xbe282217	-0.16419254
60	0xbe05bac7	-0.13059531
61	0x3dcf16e9	0.10111792
62	0xbbbb01b0	-0.0057069883
63	0x3eda0ce4	0.4258796
64	0x3e25a1f5	0.16175063
65	0x3e8367d8	0.25665164
66	0x3f0379c3	0.5135767
67	0xbd176f6d	-0.0369715
68	0xbee2ba51	-0.44282773
69	0x3daeeeb5	0.085416235
70	0xbe857bc4	-0.26070988
71	0x3ed66841	0.41876414
72	0x3e5105e9	0.20412411
73	0x3e0ff565	0.14058454
74	0x3eef592a	0.46747714
75	0xbeb57cc7	-0.3544676
76	0x39fbe3d0	0.00048044184
77	0xbe1e4db5	-0.1545933
78	0x3e0f3386	0.13984498
79	0x3e737df9	0.23778524
80	0xbed84f2d	-0.42247906
81	0x3dbbf9ac	0.091784805
82	0xbdc4f2cf	-0.096166246
83	0x3c48f057	0.012264333
84	0x3f1cbcdd	0.6122568
85	0x3e39921c	0.18122143
86	0x3f2f0503	0.6836702
87	0x3f226003	0.6342775
88	0xbec63250	-0.3871026
89	0x3e8e8d0d	0.27841988
90	0x3e47c85b	0.19510023
91	0x3cdd442b	0.027010044
92	0xbe850d82	-0.25986868
93	0xbe6ae023	-0.22937064
94	0xbe158c88	-0.1460439
95	0xbc4d91cf	-0.0125469705
96	0x3eca8364	0.39553368
97	0x3e99ce6b	0.30040297
98	0x3e3c33cb	0.18379132
99	0xbf6b6e90	-0.9196558
100	0x3e8ba622	0.27275187
101	0x3e9ef4b8	0.3104608
102	0x3e6778dc	0.22604698
103	0x3e092e42	0.13396552
104	0xbeca1adb	-0.39473614
105	0x3e1bf574	0.15230352
106	0x3ea3c010	0.3198247
107	0x3e5b9f8a	0.21447578
108	0xbeaaa11d	-0.33326045
109	0x3e3b7043	0.18304543
110	0xbdbeafe9	-0.09310896
111	0x3e562ba2	0.20915082
112	0x3e786ffa	0.24261466
113	0xbf2889af	-0.6583509
114	0x3d8499c5	0.06474642
115	0x3c11edc8	0.008906789
116	0xbef06b8d	-0.46957055
117	0x3f343e83	0.70407885
118	0xbcae8f11	-0.021308454
119	0xbb77cb3e	-0.003781035
120	0x3ea57424	0.3231517
121	0x3db50d44	0.08840421
122	0xbe844f1f	-0.25841615
123	0x3e111e49	0.14171709
124	0xbe3ed009	-0.18634047
125	0xbe9dbb7b	-0.308071
126	0xbe949cb5	-0.29025808
127	0x3f1e9a8f	0.6195459
128	0x3f0c4973	0.54799575
129	0xbebf233e	-0.37331575
130	0x3dcb1e35	0.09917871
131	0xbe928d88	-0.28623605
132	0x3dc8266c	0.097729534
133	0xbbf40e00	-0.007447958
134	0xbdfd551c	-0.12369749
135	0xbe88971d	-0.2667779
136	0xbe828ef0	-0.25499678
137	0x3e1361b4	0.1439274
138	0x3d41ba4d	0.04729681
139	0xbc0d39ea	-0.008619765
140	0xbe07c722	-0.13259557
141	0x3dec7a87	0.11546808
142	0xbd0a0cf6	-0.033703767
143	0xbe90e7e8	-0.2830193
144	0x3e1ef88c	0.155245
145	0xbeb19f4e	-0.34691852
146	0xbcbe0113	-0.023193872
147	0x3d277ea6	0.040892266
148	0xbb75265f	-0.0037406904
149	0xbf0239ad	-0.50869256
150	0x3eb9edee	0.36314338
151	0x3d5f07c3	0.05445076
152	0x3dde035c	0.108404845
153	0xbebdd0a7	-0.37073252
154	0xbefa0e38	-0.48838973
155	0xbdbeeccc	-0.09322509
156	0x3c2377f1	0.009977327
157	0x3ed5be53	0.41746768
158	0xb8f0bc0a	-0.00011479117
159	0x3ea39202	0.31947333
160	0xbf094fdc	-0.5363748
161	0xbed75ddd	-0.420638
162	0xbf2b560e	-0.66928184
163	0xbe9d7bfd	-0.30758658
164	0x3f1998db	0.59998864
165	0xbf45c2ae	-0.7725018
166	0x3e8b2661	0.27177718
167	0x3eac0898	0.33600307
168	0xbe9791b2	-0.29603344
169	0xbdedb835	-0.116074
170	0x3d0a5cfb	0.03378008
171	0xbe882687	-0.26591894
172	0x3d266c84	0.040630832
173	0x3e558c73	0.20854358
174	0x3e7f2cf9	0.249195
175	0x3ece129b	0.4024857
176	0xbd634554	-0.05548604
177	0xbda0f654	-0.07859483
178	0xbdabe7b2	-0.08393802
179	0xbe91b34d	-0.28457108
180	0x3e4a29de	0.19742534
181	0xbe3de918	-0.1854595
182	0xbe5c1002	-0.21490481
183	0xbe4fae85	-0.20281418
184	0xbe765702	-0.24056628
185	0xbe05a0d3	-0.13049631
186	0xbe15b038	-0.14618003
187	0x3e01c414	0.12672454
188	0x3cfc08cc	0.030765913
189	0x3dacbd5b	0.08434554
190	0xbf473b15	-0.7782453
191	0x3ebacf4f	0.3648629
192	0xbf33cd72	-0.7023536
193	0x3ce91e5c	0.02845686
194	0x3f6ebef6	0.93260133
195	0xbe9e4a82	-0.3091622
196	0x3f513069	0.81714493
197	0x3e0e9ba1	0.13926555
198	0xbcb6827b	-0.022279015
199	0xbf6038cc	-0.87586665
200	0xbecd2ca2	-0.40073115
201	0xbedf33bf	-0.43594167
202	0x3e6e5139	0.23273171
203	0xbeec5949	-0.4616187
204	0xbe270573	-0.16310672
205	0xbeff8ca3	-0.49911985
206	0x3e51eb19	0.20499839
207	0xbe9c2e64	-0.30504143
208	0xbeee13fe	-0.46499628
209	0x3d337a51	0.043817822
210	0x3da0f525	0.078592576
211	0x3e9142da	0.28371316
212	0x3ca433a8	0.020044163
213	0xbe80747b	-0.25088868
214	0xbdf18b33	-0.11794128
215	0x3cba878e	0.022769716
216	0x3ef17e6b	0.47166762
217	0x3f28fb16	0.66008127
218	0x3f1786f0	0.59190273
219	0x3f42b4fb	0.76057404
220	0xbf44bf3e	-0.7685431
221	0x3f13949e	0.57648647
222	0x3e166f9a	0.1469101
223	0xbeeddedb	-0.46459088
224	0x3e03b0ef	0.12860464
225	0x3e37a62b	0.17934482
226	0x3f144c75	0.57929164
227	0xbf465e18	-0.77487326
228	0xbe84855d	-0.25882998
229	0xbe8baa32	-0.27278286
230	0xbe85dba4	-0.26144135
231	0x3dd91df7	0.106014185
232	0xbeb4cc8a	-0.353123
233	0x3f780b5d	0.9689234
234	0x3f071e60	0.52780724
235	0xbe4ceff5	-0.20013411
236	0x3e1d18b8	0.1534146
237	0xbe884de9	-0.2662194
238	0xbd89e648	-0.06733376
239	0xbdc286e4	-0.094983846
240	0x3ebf7e14	0.37400877
241	0xbe329386	-0.17439088
242	0x3db4de25	0.08831433
243	0xbdfb9970	-0.12285125
244	0x3e566794	0.2093795
245	0xbe8a464f	-0.27006766
246	0xbe7f3810	-0.2492373
247	0xbe1a0416	-0.15040621
248	0xbe1193a4	-0.14216477
249	0xbe7eeace	-0.24894258
250	0xba9a1ee4	-0.0011758474
251	0xbe77032c	-0.24122304
252	0x3e079000	0.13238525
253	0xbcdc6ee5	-0.026908347
254	0x3e85560e	0.26042217
255	0x3eb6c63b	0.35698113

linear1.bias f4 [100]
0	0xbeb543c4	-0.35403264
1	0xbf156f34	-0.5837281
2	0xbe904911	-0.28180745
3	0xbb391156	-0.0028239093
4	0xbe7e61e1	-0.24842025
5	0x3e1f0e3a	0.15532771
6	0xbebb3f4b	-0.36571726
7	0xbeac6cd8	-0.3367679
8	0x3e457861	0.19284202
9	0x3d710ecc	0.058852002
10	0xbe844432	-0.2583328
11	0xbec0ec29	-0.37680176
12	0xbec59aed	-0.38594761
13	0x3dc58e26	0.09646253
14	0xbd3e750e	-0.04649835
15	0xbcf98dce	-0.030463126
16	0xbdc9caaa	-0.09853108
17	0xbe279700	-0.16366196
18	0xbe2c4973	-0.16824894
19	0xbf024260	-0.5088253
20	0x3f0dfc9d	0.5546358
21	0xbeb2d5b8	-0.3492868
22	0xbeab516c	-0.33460557
23	0xbefffc89	-0.49997357
24	0x3e41df8f	0.18932937
25	0xbe01ebb5	-0.12687571
26	0xbdddca7d	-0.10829637
27	0x3e656d8c	0.2240507
28	0x3dfe872d	0.124281265
29	0x3d8b99a5	0.06816415
30	0x3d048cdb	0.032360893
31	0xbee131b6	-0.4398324
32	0xbe864ce8	-0.2623055
33	0xbe957e23	-0.29197797
34	0xbeb5fb23	-0.35543165
35	0x3e048096	0.12939677
36	0xbda57c7f	-0.08080386
37	0x3e8985bf	0.26859853
38	0xbd66aeb5	-0.056318957
39	0xbdbe947c	-0.09305665
40	0x3e4d32d2	0.20038918
41	0xbe52b4b3	-0.20576744
42	0xbe5b349e	-0.2140679
43	0xbe1ff6eb	-0.15621535
44	0xbd40692b	-0.046975296
45	0xbe3ccc89	-0.18437399
46	0x3e21053b	0.15724652
47	0x3d87e059	0.06634588
48	0x3f10b6d5	0.5652898
49	0x3d1d966d	0.038473535
50	0xbe3a0be1	-0.18168594
51	0xbea066a6	-0.31328315
52	0x3df9cf88	0.121977866
53	0xbe8926ae	-0.26787323
54	0x3e3b0dfb	0.18267052
55	0xbeab1074	-0.3341099
56	0xbe6bcec8	-0.230281
57	0x3f01efa2	0.50756276
58	0xbe29bd61	-0.16576149
59	0xbe67c072	-0.22632006
60	0x3eff38a1	0.49847892
61	0xbe16e652	-0.14736298
62	0xbe09450f	-0.1340525
63	0xbbd4a2dc	-0.006489141
64	0xbe5a8628	-0.21340239
65	0xbe3d2d76	-0.18474373
66	0xbe876803	-0.26446542
67	0xbe88a83b	-0.2669085
68	0xbe7565e5	-0.23964651
69	0x3e91fae7	0.28511736
70	0xbe460f7e	-0.19341847
71	0xbf1466d1	-0.57969385
72	0x3f17b49b	0.5925996
73	0x3d8de958	0.069292724
74	0x3f1dcc8e	0.6164025
75	0xbf47b1f6	-0.7800592
76	0xbd80af79	-0.06283469
77	0xbed03aa2	-0.40669733
78	0xbe65ab7e	-0.224287
79	0x3e75abaf	0.23991273
80	0xbf1c8fd3	-0.6115696
81	0xbec9ff4e	-0.39452595
82	0xbe8e2d30	-0.2776885
83	0x3f08c207	0.5342106
84	0xbe786984	-0.24259001
85	0x3f2a621f	0.6655597
86	0x3e5662f2	0.20936182
87	0xbc7698c1	-0.015051068
88	0xbe9e7527	-0.30948755
89	0xbcb80ca1	-0.02246696
90	0x3cea7919	0.028622197
91	0x3d14ad7d	0.036298264
92	0x3c24c6d5	0.010057171
93	0xbe65b487	-0.22432147
94	0x3f91bb3a	1.1385262
95	0xbe7bbd26	-0.24583873
96	0x3ed88846	0.42291468
97	0xbd791550	-0.06081134
98	0xbe6e584c	-0.2327587
99	0x3ca51ee9	0.02015634

linear2.weight f4 [3, 100]
0	0xbde7302f	-0.11288487
1	0x3c692db7	0.014232091
2	0xbed36a2a	-0.41291934
3	0xbefac258	-0.48976398
4	0xbbfad606	-0.007654908
5	0xbc9df376	-0.01928113
6	0xbd8ecdcc	-0.069728464
7	0xbe79b4ab	-0.24385326
8	0xbc993bb8	-0.018705234
9	0x3e2fadfc	0.17156214
10	0xbe02ae3e	-0.1276178
11	0xbeacc9b8	-0.3374765
12	0x3d0441a6	0.03228917
13	0x3d3780fe	0.04480075
14	0xbf316b7f	-0.6930465
15	0xbc6e610c	-0.014549505
16	0x3cff80e7	0.031189395
17	0xbf4c57a2	-0.7982122
18	0x3e383022	0.17987111
19	0xbe993b06	-0.29927844
20	0x3eedecf0	0.4646983
21	0x3d1f5c65	0.038906474
22	0x3d83c892	0.0643474
23	0xbe6772fc	-0.22602457
24	0x3de6a8be	0.11262654
25	0xbe72c973	-0.2370966
26	0x3e3e2464	0.1856857
27	0x3edc9042	0.4307881
28	0xbe795076	-0.243471
29	0x3f7dc092	0.99121964
30	0x3f1cbfa0	0.61229897
31	0xbed14afa	-0.40877515
32	0xbcf58a77	-0.029973252
33	0xbd971367	-0.073767476
34	0xbe045786	-0.12924013
35	0x3f042820	0.51623726
36	0xbf534a3f	-0.82535166
37	0x3eebe90d	0.4607624
38	0xbe674477	-0.22584711
39	0xbe28b6e3	-0.16476016
40	0x3eeb0c04	0.45907605
41	0x3d4b7047	0.049667623
42	0x3d8fac11	0.07015241
43	0xbd85808c	-0.06518659
44	0xbd275693	-0.040854048
45	0xbf5b2129	-0.85597473
46	0xbf093d0c	-0.53608775
47	0x3dd2a208	0.10284811
48	0x3f54019a	0.82814944
49	0x3eabdf31	0.3356872
50	0x3d195a64	0.03743972
51	0xbdbe1bb5	-0.092826284
52	0x3b19935e	0.0023433785
53	0xbd804f31	-0.062651046
54	0x3dd90e05	0.10598377
55	0xbee9d642	-0.45671278
56	0xbbf9e59a	-0.0076262476
57	0x3f11883c	0.568485
58	0xbf0e0c94	-0.5548794
59	0xbf5d40c4	-0.8642695
60	0x3e644699	0.22292556
61	0xbe4d83f8	-0.20069873
62	0xbaecfc2a	-0.0018080522
63	0x3e2083ed	0.15675326
64	0x3ef0b0af	0.470098
65	0xbd115789	-0.03548387
66	0xbea26dd2	-0.3172441
67	0xbdb71ae8	-0.08940679
68	0x3af66a3f	0.0018799974
69	0x3eba9d73	0.3644825
70	0xbe8aaad9	-0.2708347
71	0xbc8eb89e	-0.017422017
72	0x3e006ec5	0.12542255
73	0xbdb866cd	-0.09003983
74	0x3e1bc041	0.15210058
75	0xbee9f8c8	-0.45697618
76	0xbbcd2200	-0.0062601566
77	0x3c89cd49	0.01682152
78	0x3cd63ad3	0.026151096
79	0x3f5a7346	0.85332143
80	0x3e1cf92e	0.1532943
81	0xbe9d3695	-0.30705705
82	0xbeb35d4e	-0.35032123
83	0x3f207232	0.6267425
84	0xbf454401	-0.7705689
85	0x3edc11c4	0.42982304
86	0xbeebbeeb	-0.46044096
87	0xbe7e4aec	-0.24833268
88	0xbdc839bb	-0.09776636
89	0xbd21a1f1	-0.03946108
90	0xbf1345d5	-0.5752843
91	0xbdf8dd30	-0.12151563
92	0xbdc32cc1	-0.095300205
93	0xbe1512ba	-0.14557925
94	0x3ee1c1d2	0.44093186
95	0xbe584838	-0.211213
96	0x3ecfea5e	0.40608495
97	0x3f12305b	0.57105035
98	0xbcd59a9a	-0.026074696
99	0xbc51d1f1	-0.012806402
100	0xbca0b62e	-0.01961812
101	0xbea41319	-0.3204582
102	0xbe8a5bac	-0.27023065
103	0xbcd8fc44	-0.026487477
104	0xbd913771	-0.07090653
105	0xbe1e853a	-0.1548051
106	0xbd6adddf	-0.0573405
107	0xbf00d036	-0.50317705
108	0xbe8af82d	-0.27142468
109	0xbe212ec2	-0.15740493
110	0xbe393781	-0.1808758
111	0x3edb4ed1	0.4283357
112	0x3dcc018d	0.09961233
113	0xbe1a4664	-0.15065914
114	0xbd4d919b	-0.05018769
115	0xbe857b57	-0.26070663
116	0x3caa572c	0.02079352
117	0xbe7154a5	-0.23567446
118	0x3f458cce	0.77167976
119	0xbf0b103a	-0.54321635
120	0x3e1047a8	0.14089835
121	0x3ef4fbf4	0.47848475
122	0xbc1426ab	-0.009042422
123	0xbebf0561	-0.3730879
124	0x3efd3cf7	0.49460575
125	0xbe492687	-0.19643603
126	0x3eb99d01	0.36252597
127	0x3f373518	0.7156539
128	0x3e9cd328	0.3062985
129	0xbe77232b	-0.2413451
130	0x3f38c38e	0.7217339
131	0xbde48812	-0.11158766
132	0xbe916393	-0.28396282
133	0xbe62cd0a	-0.22148529
134	0xbea14b29	-0.31502655
135	0xbeea4f28	-0.45763516
136	0xbdf51357	-0.119665794
137	0x3ea13e44	0.31492817
138	0xbdb7e10c	-0.08978471
139	0xbef8333a	-0.48476583
140	0x3e22ec37	0.15910421
141	0x3db4516e	0.08804594
142	0x3d4971c4	0.04918076
143	0x3e856c16	0.26059026
144	0x3eb01b21	0.34395698
145	0x3d2b54ed	0.04182904
146	0x3e30f3f7	0.17280565
147	0x3f62ff1e	0.8867053
148	0x3eefba28	0.46821713
149	0xbdc5673c	-0.09638831
150	0xbb9f8f50	-0.004869379
151	0xbd4a39fd	-0.04937171
152	0xbe716118	-0.23572195
153	0x3cdd45c0	0.027010798
154	0x3d54da40	0.051965952
155	0x3d9736f6	0.0738353
156	0xbd76f170	-0.060288846
157	0x3e289732	0.16463926
158	0xbe31c524	-0.1736036
159	0x3d94ce81	0.0726595
160	0x3d9e27ef	0.077224605
161	0xbd832ab5	-0.0640463
162	0xbc871112	-0.016487632
163	0x3ddd4466	0.108040616
164	0x3ec3879e	0.38189405
165	0xbee2bcc8	-0.44284654
166	0x3d36524b	0.044512074
167	0xbd3b6b32	-0.045756526
168	0x3cf551f2	0.029946301
169	0xbe64859c	-0.22316593
170	0x3e56cbfc	0.20976251
171	0xbe800f9b	-0.25011906
172	0xbe085cc7	-0.13316642
173	0x3f8d47d4	1.1037545
174	0xbdba189d	-0.09086726
175	0xbf164fef	-0.5871572
176	0x3f926d1d	1.1439549
177	0x3d811b9d	0.06304095
178	0x3d5fadbb	0.05460904
179	0xbe0caf1e	-0.13738677
180	0xbf163858	-0.58679724
181	0xbdc20b66	-0.0947483
182	0x3e0ed898	0.13949811
183	0x3edffe64	0.43748772
184	0x3d67b3c8	0.056567937
185	0x3e505ed2	0.20348671
186	0xbe43ca11	-0.19120051
187	0x3f0d5a21	0.5521565
188	0x3d46ff80	0.048583508
189	0x3e8c4653	0.27397403
190	0x3eaf190c	0.34198797
191	0x3c29fa6c	0.010374647
192	0xbedf5803	-0.43621835
193	0xbebdd4a7	-0.37076303
194	0x3e9cf985	0.30659118
195	0xbed9ab8a	-0.42513686
196	0x3e08f77f	0.13375662
197	0x3ee226a4	0.44170105
198	0x3e5d3015	0.21600373
199	0xbda46564	-0.08027151
200	0xbcbe69dc	-0.023243837
201	0x3bbfbe4f	0.005851544
202	0xbe277189	-0.16351904
203	0xbe80d658	-0.2516353
204	0xbb1cc92d	-0.002392362
205	0xbe1cde49	-0.1531917
206	0x3dc4757c	0.09592721
207	0xbed0c94b	-0.40778574
208	0xbdbd3108	-0.092378676
209	0xbe45dc58	-0.19322336
210	0xbe2932a7	-0.16523229
211	0xbecb0cc3	-0.39658174
212	0x3d061cb9	0.032742236
213	0x3bc6a16d	0.006061724
214	0x3e9d9f42	0.30785567
215	0xbdf91af1	-0.12163342
216	0x3cdbb273	0.02681849
217	0xbe8ef0f8	-0.2791822
218	0x3ea9a648	0.33134675
219	0xbee5595e	-0.44794744
220	0x3e86de2c	0.2634138
221	0xbeeced7c	-0.46274936
222	0xbc9d64a0	-0.01921302
223	0xbeebceba	-0.46056157
224	0xbdc8b914	-0.09800926
225	0x3e18c81a	0.14920083
226	0xbf060406	-0.5234989
227	0xbccb3a1f	-0.024807988
228	0x3eba4bcb	0.3638595
229	0xbf79ab8c	-0.97527385
230	0x3ebb76f7	0.366142
231	0xbed57634	-0.41691744
232	0xbdb74f85	-0.08950714
233	0xbeb21593	-0.34782085
234	0xbe9ce05a	-0.30639917
235	0xbbed275d	-0.0072373585
236	0xbe060ec5	-0.13091572
237	0x3d982c3c	0.07430312
238	0xbcc7e53d	-0.024401302
239	0xbe60204c	-0.2188732
240	0xbf4573bc	-0.7712972
241	0x3efffa60	0.49995708
242	0xbd702ba9	-0.058635388
243	0xbd702874	-0.05863233
244	0x3e79cc79	0.24394406
245	0xbdaec203	-0.085330985
246	0x3ed9dd4a	0.42551643
247	0x3f0594d7	0.52180237
248	0x3ed20aa9	0.41023758
249	0xbe2097eb	-0.15682952
250	0x3c569f0a	0.013099441
251	0xbd45c8ce	-0.048287205
252	0xbd7969fb	-0.060892086
253	0xbe9ed7e6	-0.31024092
254	0x3eb3e4ca	0.3513549
255	0xbd93676d	-0.07197461

linear2.bias f4 [3]
0	0x3e374568	0.1789757
1	0xbeaf6bdb	-0.34261975
2	0xbe4f1356	-0.2022222
